back_end/mlp_model.pt (torch, 32220 bytes, 6 tensors)

model.0.weight f4 [64, 19]
0	0x3e16069b	0.14650957
1	0xbe32d297	-0.17463146
2	0xbd05b3f3	-0.032642316
3	0xbd85c23e	-0.065311894
4	0xbceee001	-0.029159548
5	0x3deeed5f	0.11666369
6	0xbeae01ff	-0.33985898
7	0xbe1d3980	-0.15353966
8	0x3d8e8c3f	0.069603436
9	0xbd204a89	-0.039133582
10	0xbc8a908f	-0.016914634
11	0xbe1b769f	-0.15181969
12	0xbd6051e1	-0.054765586
13	0xbd1bba2a	-0.038019337
14	0xbe2bdbd6	-0.1678308
15	0xbeb959b6	-0.36201257
16	0xbe0fa522	-0.14027837
17	0x3d21f9dc	0.039544925
18	0x3ea99bce	0.33126682
19	0xbc623829	-0.013807335
20	0xbe265028	-0.16241515
21	0xbddebfb1	-0.10876406
22	0x3dc3edaf	0.09566819
23	0xbe94a384	-0.29031003
24	0x3d352731	0.04422683
25	0xbeb0f255	-0.34559885
26	0xbdf4e1e5	-0.119571485
27	0xbe0641c2	-0.13111022
28	0xbe9ff1a4	-0.31239045
29	0xbddefe7b	-0.10888382
30	0x3ccd5ce9	0.025068717
31	0xbe5744ff	-0.21022414
32	0x3e506cbc	0.20353979
33	0xbe94043c	-0.2890948
34	0xbea4cc71	-0.32187226
35	0x3e0c4e54	0.13701755
36	0xbea1a82e	-0.31573623
37	0x3e422e4c	0.18962973
38	0xbe7a4be9	-0.2444302
39	0xbe9f3676	-0.31096238
40	0x3e333c4e	0.17503473
41	0x3c38afc7	0.011272377
42	0xbe61175b	-0.21981566
43	0x3e1e516c	0.15460747
44	0xbe8f293d	-0.2796115
45	0xbe947d54	-0.29001868
46	0xbe16eef4	-0.14739591
47	0x3dc66e9d	0.096890666
48	0xbd1ba012	-0.03799445
49	0x3df6b8a9	0.1204694
50	0xbe14547a	-0.1448535
51	0xbd535f0c	-0.051604316
52	0xbe0d5b39	-0.1380433
53	0x3d0acc84	0.033886448
54	0xbe998222	-0.29982096
55	0xbea14e22	-0.31504923
56	0xbdd0e5fd	-0.10200117
57	0x3d0154c6	0.031574987
58	0xbd1c7998	-0.0382019
59	0xbeb23894	-0.3480879
60	0xbe3bdc32	-0.18345717
61	0x3e094a14	0.13407165
62	0x3de54d03	0.111963294
63	0x3c962b65	0.018331239
64	0xbd7b1763	-0.0613016
65	0xbe92e07a	-0.28686887
66	0xbea172ef	-0.31533
67	0xbda35c97	-0.079766445
68	0xbe945b79	-0.28976038
69	0xbdb4a8b4	-0.0882124
70	0xbe0509f2	-0.12992075
71	0xbd7526b4	-0.059851363
72	0xbe42eb98	-0.19035184
73	0xbe126df5	-0.14299758
74	0xbe720eb0	-0.23638415
75	0x3e67a168	0.22620165
76	0xbe8258a0	-0.2545824
77	0xbcc3bd16	-0.023893874
78	0x3df5eca7	0.120080285
79	0xbe95aaed	-0.2923197
80	0xbcdbcf00	-0.026832104
81	0xbe7cc781	-0.2468548
82	0xbe391fdb	-0.18078558
83	0x3d432c6f	0.047649797
84	0xbe176c5c	-0.1478743
85	0x3de8e1ad	0.11371169
86	0xbea06831	-0.31329492
87	0xbda65680	-0.08121967
88	0xbd99a808	-0.075027525
89	0xbde3171c	-0.11088392
90	0xbe454772	-0.19265535
91	0xbe05a6cd	-0.1305191
92	0xbe3d222b	-0.18470065
93	0x3e29b276	0.16571984
94	0xbdf58a5e	-0.11989282
95	0x3cef7162	0.02922887
96	0xbdf7e8b1	-0.12104929
97	0xbe1464c0	-0.14491558
98	0xbd1579d2	-0.03649313
99	0x3c4b846e	0.01242171
100	0xbe814a6b	-0.2525209
101	0xbdea6e93	-0.114468716
102	0xbd009f5f	-0.031401988
103	0xbde97b91	-0.114005215
104	0xbe4a0f57	-0.19732414
105	0x3e4231e8	0.1896435
106	0xbe51432b	-0.20435779
107	0xbe347930	-0.17624354
108	0xbe5ed9f7	-0.21762834
109	0x3e3daa08	0.18521893
110	0xbe89c6ed	-0.2690958
111	0x3d109663	0.03529967
112	0xbdc8bad0	-0.09801257
113	0xbe35a743	-0.17739587
114	0xbe92a6af	-0.28642794
115	0xbe9a61d7	-0.3015277
116	0x3e056e00	0.13030243
117	0x3d19b719	0.03752813
118	0xbd9211f1	-0.07132328
119	0xbd8c674c	-0.0685564
120	0xbd22b79e	-0.039725892
121	0xbe2c3074	-0.16815358
122	0x3cf69b05	0.030103216
123	0x3d8cca7f	0.068745606
124	0xbe22e546	-0.15907773
125	0x3d4d85bd	0.05017637
126	0xbdf694f5	-0.1204013
127	0x3ce5570e	0.027995612
128	0xbdec1ffa	-0.115295365
129	0x3d8057ba	0.062667325
130	0xbb85c579	-0.0040823785
131	0xbe381a67	-0.17978822
132	0xbdbbbee4	-0.09167269
133	0x3e1a5606	0.15071878
134	0xbd365ac7	-0.044520166
135	0xbe3928ed	-0.18082018
136	0x3d3bf4dd	0.045887817
137	0xbe8d944f	-0.27652213
138	0xbcc0e80b	-0.023548147
139	0xbe6486b6	-0.22317013
140	0xbc746b89	-0.0149182165
141	0x3cd7474b	0.026279112
142	0xbe20f012	-0.1571658
143	0xbe65354f	-0.22383617
144	0xbe9dce4e	-0.3082146
145	0x3ce516c4	0.027964957
146	0xbd126ba5	-0.03574719
147	0xbe9b63f9	-0.3034971
148	0xbe1dd752	-0.1541417
149	0xbdb44c11	-0.08803571
150	0x3de2100d	0.11038218
151	0xbc194c38	-0.009356551
152	0xbd48afae	-0.048995666
153	0x3c94b4cb	0.018152615
154	0x3d060c06	0.03272631
155	0xbe1ad403	-0.15119939
156	0x3d8e3764	0.06944159
157	0xbd64965c	-0.055807456
158	0xbe1e56f6	-0.1546286
159	0xbd8d26e9	-0.06892187
160	0x3e15c757	0.14626823
161	0xbe9838f2	-0.29730946
162	0xbe025480	-0.12727547
163	0xbe8ace66	-0.27110595
164	0xbe32c0f6	-0.17456421
165	0x3e2eff7f	0.17089652
166	0xbddc41a2	-0.10754706
167	0xbe85e946	-0.26154536
168	0x3d28db3a	0.041224696
169	0x3e1b0674	0.1513918
170	0xbe5bf268	-0.2147919
171	0xbe7692a3	-0.24079375
172	0xbb9ff910	-0.0048819855
173	0x3e000487	0.12501727
174	0x3e0836f9	0.1330222
175	0x3d36f06d	0.04466288
176	0xbe8b9e7d	-0.27269354
177	0x3d497bd0	0.049190342
178	0xbe72687a	-0.23672667
179	0x3e13b1e2	0.14423326
180	0x3e0637f3	0.1310728
181	0x3d424db8	0.0474374
182	0xbe2e7c87	-0.17039691
183	0xbdf850a0	-0.12124753
184	0xbd7b33bd	-0.06132864
185	0xbdd8755f	-0.10569262
186	0xbcf59648	-0.029978886
187	0x3d57489b	0.052559476
188	0xbdd64b67	-0.104636006
189	0xbe2a394a	-0.16623417
190	0x3d695f9b	0.056975942
191	0x3da2659e	0.07929538
192	0xbe298552	-0.16554764
193	0xbe6a147b	-0.22859375
194	0x3dac3b97	0.08409803
195	0xbe823ab7	-0.2543542
196	0x3d7c3749	0.06157616
197	0x3db27d85	0.08715347
198	0xbe290531	-0.16505887
199	0xbd6a56b1	-0.05721158
200	0xbd7e04df	-0.062016364
201	0x3d00ca6a	0.031443037
202	0xbe2f7dd8	-0.1713785
203	0xbec86d44	-0.39145863
204	0xbe9bf667	-0.30461428
205	0xbe1d5ebe	-0.15368173
206	0xbca4f56d	-0.02013656
207	0xbe9fe71e	-0.31231016
208	0x3e11182c	0.14169377
209	0xbe201672	-0.15633562
210	0x3d011ace	0.031519704
211	0x3d725405	0.05916216
212	0xbe2f1591	-0.1709807
213	0x3e317c2a	0.17332521
214	0x3cb09f9a	0.021560479
215	0x3e23eeab	0.16009013
216	0x3de8c6d2	0.11366047
217	0xbcae0dfc	-0.021246903
218	0xbde77459	-0.113014884
219	0xb9141dd5	-0.00014125493
220	0x3cb5e878	0.022205576
221	0xbe399e75	-0.18126853
222	0xbe674064	-0.22583157
223	0xbe3ec092	-0.18628147
224	0xbe34bf62	-0.17651132
225	0xbe33ad79	-0.17546643
226	0x3da5d983	0.08098128
227	0xbe5a9d79	-0.21349134
228	0xbe674b01	-0.22587205
229	0xbde050e5	-0.109529294
230	0xbe657a53	-0.22409944
231	0x3ce92ccc	0.028463744
232	0x3e314b06	0.17313775
233	0x3e1f9b56	0.155866
234	0xbd616932	-0.055031963
235	0xbcdff8ed	-0.027340377
236	0xbe164cc8	-0.14677727
237	0xbe3874c3	-0.18013291
238	0xbc059f1d	-0.008155611
239	0xbd9803e6	-0.074226186
240	0xbe04beb9	-0.1296338
241	0xbe7870eb	-0.24261825
242	0xbd3ddc54	-0.0463527
243	0x3e02ee3b	0.1278619
244	0x3bcb7dfa	0.006210086
245	0xbe64521f	-0.22296952
246	0xbe6f9ed2	-0.23400429
247	0xbe08c9a3	-0.13358168
248	0x3dbe1ce1	0.09282852
249	0xbd485591	-0.048909727
250	0xbcdb3408	-0.026758209
251	0x3e415919	0.18881644
252	0x3a44f2cc	0.0007512986
253	0xbe7a6472	-0.2445238
254	0xbe6ee3c1	-0.23329069
255	0xbe08f9d1	-0.13376547

model.0.bias f4 [64]
0	0xbf2d29b5	-0.67641765
1	0xbe0085d3	-0.1255105
2	0xbdab33bc	-0.08359477
3	0xbea5dc86	-0.3239481
4	0xbd26fd90	-0.04076916
5	0xbe4cb815	-0.19992097
6	0xbe27d8b9	-0.16391267
7	0x3c451678	0.012029283
8	0xbe193f5f	-0.1496558
9	0xbe87adf7	-0.26499912
10	0x3ce9ad80	0.028525114
11	0xbe68d0f0	-0.22735953
12	0xbdea8219	-0.114505954
13	0x3d882a43	0.06648686
14	0xbe634b30	-0.2219665
15	0xbe37f4b9	-0.17964448
16	0x3ecd5493	0.40103588
17	0xbefafbf9	-0.49020365
18	0xbe61a298	-0.22034681
19	0x3cc4bad8	0.024014875
20	0xbd32c472	-0.043644376
21	0xbde62354	-0.11237207
22	0xbd1ee499	-0.038792226
23	0xbe3cbcbf	-0.18431376
24	0xbe7bd8cb	-0.24594419
25	0xbf0c04ef	-0.5469503
26	0xbddaff49	-0.10693223
27	0x3d0e324f	0.034715947
28	0xbe8cdfd6	-0.27514523
29	0xbf3b1af5	-0.7308801
30	0x3d258253	0.04040749
31	0xbe2e7c18	-0.17039526
32	0xbe1483a9	-0.1450335
33	0x3e4bd84b	0.19906728
34	0xbe51a3c9	-0.20472635
35	0x3e5dce62	0.2166076
36	0xbe5302db	-0.20606558
37	0xbe14dfc7	-0.1453849
38	0xbe431aa9	-0.19053139
39	0xbec1913a	-0.37806112
40	0xbe524fe2	-0.20538285
41	0xbe816bf5	-0.25277677
42	0x3d141e2c	0.036161587
43	0xbd9c04e5	-0.07618121
44	0xbd92d6d8	-0.071698844
45	0x3e916515	0.28397432
46	0xbea8463b	-0.32866082
47	0xbf213d7d	-0.6298445
48	0xbe66f299	-0.22553481
49	0xbe019718	-0.12655294
50	0x3e0636ca	0.13106838
51	0xbd83312e	-0.06405865
52	0xbcac4346	-0.021028172
53	0x3e7bab34	0.24577028
54	0xbe5080c9	-0.20361628
55	0x3d805600	0.06266403
56	0x3e12a954	0.14322406
57	0xbe4c456c	-0.19948357
58	0xbdddf444	-0.108376056
59	0xbd992115	-0.07477013
60	0x3db53e71	0.088498004
61	0x3fa7b878	1.310317
62	0xbc5833cd	-0.013195944
63	0xbc59b713	-0.013288277

model.2.weight f4 [64, 64]
0	0xbddc8ded	-0.10769258
1	0xbc6ba5d6	-0.0143828
2	0x3df85ffd	0.12127683
3	0xbd02893f	-0.03186917
4	0x3d23d76d	0.040000368
5	0xbd5ec1dc	-0.054384097
6	0x3ccc29e3	0.024922317
7	0x3d75e08f	0.06002861
8	0x3e1b3153	0.15155534
9	0x3e2b6062	0.16735986
10	0x3d83b156	0.064303085
11	0xbde4c806	-0.11170964
12	0xbe1b089b	-0.15140001
13	0x3d5b93d8	0.05360779
14	0xbe4b7dfb	-0.19872276
15	0x39bc03fa	0.00035861117
16	0xbe0345f4	-0.12819654
17	0xbdbfc9ab	-0.09364637
18	0xbd720df8	-0.059095353
19	0x3e19910c	0.14996737
20	0xbdfd23c6	-0.12360339
21	0xbde324b4	-0.11090985
22	0xbdb4c99c	-0.088275164
23	0xbde30a88	-0.11085993
24	0x3d29b1c5	0.0414293
25	0xbe5353a2	-0.20637372
26	0x3d0536a4	0.032522812
27	0xbda18acd	-0.07887802
28	0x3db05d2e	0.086115226
29	0xbd625353	-0.055255245
30	0xbd91b67c	-0.07114884
31	0x3bf5fc63	0.0075068935
32	0xbd17cb14	-0.037058905
33	0x3e4f5b3d	0.20249648
34	0xbda32be0	-0.07967353
35	0x3d915c2a	0.07097657
36	0xbe0ad8bf	-0.13559245
37	0x3e1926ad	0.1495616
38	0x3d4749d4	0.048654392
39	0xbe424ca0	-0.18974543
40	0x3da75ac8	0.08171612
41	0xbc82d29f	-0.015969573
42	0x3dfc73f9	0.123268075
43	0x3d9bdbc0	0.07610273
44	0xbdb249bb	-0.08705469
45	0x3d957748	0.07298142
46	0xbe1d8ef4	-0.15386564
47	0xbe03fd77	-0.12889658
48	0x3db0eaa4	0.08638504
49	0x3b005036	0.001957906
50	0xbd0abfea	-0.03387443
51	0xbddbfe6a	-0.10741885
52	0xbdac3a63	-0.08409574
53	0xbd4c597b	-0.049890023
54	0x3e356541	0.17714407
55	0xbd7442e6	-0.05963411
56	0xbe1c3f83	-0.15258603
57	0xbc951f41	-0.01820338
58	0x3e14f4be	0.14546487
59	0x3b3b28d0	0.0028558262
60	0x3d9dd5ad	0.07706771
61	0x3d9a6ffa	0.07540889
62	0xbe1296cd	-0.14315338
63	0xbd0a78d6	-0.033806644
64	0xbe1a8a20	-0.15091753
65	0xbd49dd98	-0.049283594
66	0xbdf44052	-0.119263306
67	0x3cf2247d	0.029558415
68	0xbd739dcc	-0.05947666
69	0x3d002a64	0.031290427
70	0x3d14a338	0.03628847
71	0x3d358e89	0.044325385
72	0x3d4d2a0d	0.05008893
73	0xbbb00240	-0.005371362
74	0xbced9ced	-0.029005492
75	0xbde90ae0	-0.11379027
76	0xbd8dc516	-0.06922357
77	0xbd17af3c	-0.03703235
78	0x3d37a8a0	0.044838548
79	0xbd7f69d1	-0.062356774
80	0x3db7b00a	0.08969124
81	0xbd9f460a	-0.07777031
82	0xbdf93fea	-0.12170394
83	0xbd2def84	-0.042464748
84	0xbd9adc9c	-0.07561609
85	0xbccc9cd4	-0.024977125
86	0xbce56ef0	-0.028007
87	0x3ca0dd18	0.019636676
88	0x3d0c8be4	0.034313098
89	0x3d9cfe0e	0.076656446
90	0x3dfa4f12	0.12222113
91	0x3dcd0478	0.10010618
92	0xbc425232	-0.011860417
93	0x3d30777b	0.043082695
94	0x3e08b76d	0.13351221
95	0x3dcb462f	0.09925496
96	0xbd51c540	-0.051213503
97	0x3d31c469	0.043400202
98	0x3c67fa30	0.01415877
99	0xbdd8e3a4	-0.10590294
100	0x3c4f5a42	0.0126557965
101	0x3d0eaf97	0.034835424
102	0x3d762327	0.060092118
103	0x3cdef178	0.02721475
104	0x3dc33c7c	0.09533021
105	0xbd18dbba	-0.037318923
106	0x3d8d9531	0.06913222
107	0xbd6c2134	-0.057648852
108	0x3df5fc8e	0.120110616
109	0x3d6d186f	0.05788463
110	0xbdd32fa5	-0.10311822
111	0xbe0a5ee4	-0.1351276
112	0x3e061352	0.13093308
113	0xbc76d8a5	-0.0150663005
114	0xbcf90178	-0.030396208
115	0x3d4fae17	0.050703134
116	0xbd326b94	-0.043559626
117	0xbd914cf3	-0.07094755
118	0xbc0b18d7	-0.008489809
119	0x3d955c28	0.07292968
120	0xbdb91bf5	-0.090385355
121	0xbda76728	-0.08173972
122	0x3dbc948b	0.0920802
123	0x3bed11a2	0.007234768
124	0x3e258961	0.16165687
125	0x3cc557d8	0.024089739
126	0xbcc84951	-0.024449022
127	0x3ddcb588	0.10776812
128	0xbe617b77	-0.22019754
129	0xbd4d2cac	-0.05009143
130	0xbd692140	-0.056916475
131	0xbd36709c	-0.044540986
132	0xbe233dbf	-0.15941523
133	0x3d01dc14	0.031704023
134	0xbdbb4004	-0.091430694
135	0xbd40f8dd	-0.047112335
136	0xbdabcfc2	-0.08389236
137	0xbbaa8840	-0.0052042305
138	0xbdb1765e	-0.08665155
139	0x3d7ff3b4	0.062488273
140	0x3d92cf12	0.07168402
141	0xbd63e6c0	-0.055639982
142	0xbe4ca2c6	-0.19983968
143	0x3e15a828	0.14614928
144	0xbe24cfd0	-0.16094899
145	0x3d58640c	0.052829787
146	0x3dde5576	0.10856144
147	0xbda1cc5b	-0.07900306
148	0x3d83bb17	0.06432169
149	0xbe431e18	-0.19054449
150	0xbd53e592	-0.051732607
151	0x3c9bacb0	0.019003242
152	0x3dfb0694	0.12257114
153	0xbd8ecf43	-0.06973126
154	0xbd2006ce	-0.03906899
155	0xbc94b5e2	-0.018153135
156	0x3dce592c	0.10075602
157	0x3d817f37	0.063230924
158	0xbdd402bc	-0.10352084
159	0x3d80323b	0.06259581
160	0xbcde0654	-0.027102627
161	0xbdb62aef	-0.08894908
162	0xbcb4a396	-0.02205066
163	0x3d840889	0.064469405
164	0x3d3adf73	0.045623254
165	0x3d5a40b8	0.053284377
166	0xbd059244	-0.032610193
167	0x3df6ece2	0.120569006
168	0xbc4be2a6	-0.012444174
169	0xbe975369	-0.29555824
170	0x3c630513	0.01385619
171	0x3e0391e0	0.12848616
172	0x3d02bdaf	0.031919178
173	0x39b41e9a	0.00034355075
174	0xbd84c8b5	-0.06483594
175	0xbcd7353b	-0.0262705
176	0xbdaaa45c	-0.0833213
177	0xbcf4266f	-0.029803483
178	0xbc9b0519	-0.01892333
179	0x3caf865d	0.021426374
180	0x3c03a0b0	0.008033916
181	0xbe239c66	-0.1597763
182	0x3cb5d1a4	0.022194691
183	0xbdbd1ddf	-0.09234213
184	0xbd4cb297	-0.049975004
185	0xbd6bc8f0	-0.057564676
186	0x3ca35f38	0.019942865
187	0x3da31ad6	0.07964103
188	0x3d484746	0.048896097
189	0xbd414677	-0.04718634
190	0xbc017e66	-0.007903671
191	0xbd75df2c	-0.060027286
192	0xbdb5084b	-0.088394724
193	0xbe9cce0a	-0.30625945
194	0xbe364fab	-0.17803828
195	0x3def912e	0.11697613
196	0xbc352a3a	-0.011057431
197	0x3cbdb47f	0.023157356
198	0xbd3fe9a1	-0.046853665
199	0x3dbdafaa	0.09262021
200	0xbe207ccf	-0.1567261
201	0x3d247140	0.040147066
202	0xbc2cdf41	-0.010551275
203	0x3d2ff658	0.04295954
204	0x3dd50fb8	0.10403389
205	0x3db339bf	0.087512486
206	0xbd78204b	-0.060577672
207	0x3cdb8ce1	0.026800575
208	0x3db6e185	0.08929733
209	0xbd756f02	-0.05992032
210	0xbd92f7ec	-0.071761936
211	0x3d9a093a	0.07521291
212	0xbd0bf306	-0.034167312
213	0x3d8a2532	0.06745376
214	0xbda63faa	-0.08117612
215	0x3d5be4f0	0.05368513
216	0x3da3e8ce	0.08003388
217	0xbdcad2cf	-0.0990349
218	0xbe216dff	-0.15764616
219	0xbdc36f6c	-0.095427364
220	0xbbb1907c	-0.005418835
221	0xbdc7193e	-0.097216114
222	0xbe3d037c	-0.1845836
223	0xbc5167a6	-0.012781059
224	0x3d0b3ad4	0.03399165
225	0xbe6193f6	-0.22029099
226	0x3c3bf1dd	0.011471239
227	0x3d4190b3	0.047257137
228	0xbd804b29	-0.06264336
229	0x3d1f17f1	0.03884119
230	0xbdc6c7ce	-0.097060785
231	0x3b3f2959	0.0029168932
232	0x3d4c08e5	0.04981317
233	0xbcbc856e	-0.023012843
234	0xbd24edd8	-0.040265888
235	0xbe9fa84d	-0.3118309
236	0x3d20f2f8	0.039294213
237	0x3d508b87	0.050914314
238	0x3d642467	0.05569878
239	0xbd7e199b	-0.062036138
240	0xbdd0a75f	-0.101881735
241	0xbdd021da	-0.10162707
242	0x3c57551b	0.013142849
243	0xbd0190cb	-0.031632226
244	0xbe2cb5c6	-0.16866216
245	0xbd34a988	-0.04410699
246	0xbde9055d	-0.11377976
247	0x3d9e911c	0.07742521
248	0xbe1a6474	-0.15077382
249	0xbcc749ed	-0.024327243
250	0xbe3ff6b0	-0.18746448
251	0xbdd51d26	-0.1040595
252	0xbc3eb404	-0.011639599
253	0xbd2eefeb	-0.042709272
254	0xbdd0ca98	-0.10194892
255	0xbe3d4a4a	-0.1848537

model.2.bias f4 [64]
0	0xbe2b6ba4	-0.1674028
1	0xbdefec41	-0.11714984
2	0xbe67e2ac	-0.22645062
3	0xbe30d27b	-0.17267792
4	0xbc142297	-0.00904145
5	0x3d6cd029	0.057815704
6	0xbe7c2d82	-0.24626735
7	0xbdd2d901	-0.102952965
8	0xbe21a435	-0.15785296
9	0xbe44219c	-0.19153446
10	0xbc0bf2e1	-0.008541794
11	0xbcc4b01d	-0.024009759
12	0xbe42d11a	-0.19025078
13	0xbe4bb305	-0.1989251
14	0xbe4d868c	-0.20070857
15	0xbdac2b69	-0.08406717
16	0xbe3d0758	-0.18459833
17	0x3ebbdabb	0.36690316
18	0xbbfd9399	-0.0077385423
19	0xbe1d9f35	-0.15392764
20	0xbd992d76	-0.07479374
21	0xbd2a5df1	-0.041593496
22	0xbe2fd67a	-0.1717166
23	0xbddd0a7d	-0.10793016
24	0xbe66feb2	-0.22558096
25	0xbda09286	-0.07840447
26	0xbe5aa271	-0.21351029
27	0xbe3fabab	-0.1871783
28	0xbdd9f3e2	-0.1064222
29	0xbda3924b	-0.079868875
30	0xbd5fc7f7	-0.05463406
31	0x3cdab932	0.026699636
32	0xbdcbaa25	-0.09944562
33	0xbdbaf142	-0.091280475
34	0xbc30462a	-0.010758916
35	0x3db33d58	0.08751935
36	0xbb1f97d4	-0.0024351971
37	0xbe40f89e	-0.1884484
38	0x3e3c7922	0.18405584
39	0xbe7af2e9	-0.24506725
40	0xbe971ca1	-0.2951403
41	0xbe075246	-0.13214979
42	0xbe42296f	-0.18961118
43	0xbc797ed9	-0.015227997
44	0x3d5190e2	0.05116356
45	0xbe51716d	-0.20453425
46	0xbe072fb8	-0.13201797
47	0xbd58ac1b	-0.052898508
48	0xbc0c4430	-0.008561179
49	0xbdb46245	-0.08807806
50	0xbe18f26a	-0.14936224
51	0xbcbf4913	-0.023350274
52	0xbd8c3c45	-0.06847433
53	0xbdcdfb7c	-0.100577325
54	0x3ec73112	0.38904625
55	0xbe4b4321	-0.19849826
56	0xbdaf95c9	-0.08573491
57	0xbdeda96a	-0.11604579
58	0xbe50e383	-0.20399289
59	0xbe7d2601	-0.24721529
60	0x3d807a66	0.06273346
61	0xbf285fec	-0.65771365
62	0xbe0ab7fe	-0.1354675
63	0x3ac52790	0.0015041698

model.4.weight f4 [30, 64]
0	0x3c028b72	0.007967817
1	0xbe01f1bd	-0.12689872
2	0x3db4bc06	0.08824925
3	0xbd924c2d	-0.071434356
4	0x3c92a96b	0.01790305
5	0x3d93b58e	0.07212363
6	0x3d2d3fb1	0.04229707
7	0xbd588875	-0.05286451
8	0x3d8d386a	0.06895526
9	0x3de1e0a0	0.11029172
10	0xbd8c8953	-0.0686213
11	0x3d82d894	0.06388965
12	0x3e2ca719	0.16860618
13	0x3cff2963	0.031147664
14	0xbd357f33	-0.04431076
15	0x3d656e32	0.056013294
16	0x3ef7f5bc	0.48429668
17	0xbd9b5a1b	-0.07585546
18	0x3da9ad48	0.08285004
19	0xbd87c897	-0.06630056
20	0xbdf32c50	-0.11873686
21	0xbdade03d	-0.08490036
22	0xbe762f06	-0.24041376
23	0xbd529ffe	-0.05142211
24	0xbc957919	-0.01824622
25	0xbd9554a4	-0.072915345
26	0x3db28c5d	0.087181784
27	0x3c026d3f	0.007960617
28	0xbd8408b1	-0.0644697
29	0x3d10b907	0.035332706
30	0x3e7fabe2	0.24967912
31	0xbde8eccd	-0.11373291
32	0xbdb3d719	-0.08781261
33	0xbda47711	-0.080305226
34	0x3c5b1798	0.013372324
35	0xbd789d9c	-0.060697183
36	0x3db71f93	0.08941569
37	0xbdfe7c6b	-0.124260746
38	0xbec6aefd	-0.3880538
39	0xbe2ffe11	-0.17186762
40	0xbe13a894	-0.14419776
41	0xbd08b500	-0.03337574
42	0x3b6ec9f6	0.0036436296
43	0x3d1bbb64	0.038020507
44	0x3dd40e98	0.10354346
45	0xbd65cfb1	-0.056106273
46	0xbddc92b5	-0.1077017
47	0xbcef867d	-0.029238934
48	0xbda705f1	-0.0815543
49	0x3d33c521	0.04388917
50	0xbda24b2d	-0.07924495
51	0x3c05d811	0.00816919
52	0x3ceffd77	0.029295666
53	0xbe6c2091	-0.23059298
54	0x3e062f22	0.13103917
55	0xbd557199	-0.05211029
56	0xbe078a13	-0.13236265
57	0x3cb80a56	0.022465866
58	0x3dba12cd	0.09085617
59	0x3f024091	0.5087977
60	0x3d1ff04e	0.03904753
61	0xbe7f3980	-0.24924278
62	0xbca157e5	-0.019695232
63	0x3a4eb827	0.0007885717
64	0x3ccb43a4	0.024812527
65	0xbcd27cf3	-0.025694346
66	0x3da82458	0.08210057
67	0x3dec589e	0.1154034
68	0xbbaebe4f	-0.005332745
69	0x3d75818b	0.059937995
70	0x3c7cd12b	0.015430729
71	0xbda5e00e	-0.08099376
72	0xbcd416c3	-0.02588976
73	0xbd557bb0	-0.05211991
74	0xbd7a31c6	-0.061082624
75	0xbcf0067c	-0.029299967
76	0x3d9e58cf	0.07731783
77	0xbd3ae554	-0.04562886
78	0xbe48cca0	-0.19609308
79	0x3d712263	0.058870684
80	0x3ef12e12	0.4710546
81	0xbe077f4a	-0.1323215
82	0xbdeafb59	-0.11473722
83	0xbc6b1f43	-0.014350715
84	0xbc9e2a80	-0.019307375
85	0xbbac13f1	-0.0052514006
86	0xbe198680	-0.14992714
87	0xba617825	-0.0008600972
88	0x3d51f458	0.051258415
89	0x3d5ff697	0.054678526
90	0x3d69fa57	0.05712351
91	0x3bc4c14a	0.006004487
92	0x3d6df701	0.05809689
93	0x3b5bd716	0.003354495
94	0x3ede768c	0.4344982
95	0x3e0f08be	0.13968179
96	0x3dab8659	0.08375234
97	0x3daaa31a	0.083318904
98	0x3d425d57	0.047452297
99	0xbdde3945	-0.10850767
100	0x3d375193	0.04475553
101	0xbc987307	-0.018609537
102	0xbe9b1023	-0.3028575
103	0x3b1f4e54	0.0024308162
104	0xbcca1342	-0.024667386
105	0x3dbc1a5f	0.091847174
106	0xbe10efe6	-0.14154014
107	0xbdd7accb	-0.105310045
108	0x3d871675	0.0659608
109	0xbd33fe30	-0.043943584
110	0xbdbc69dc	-0.091998786
111	0x3ca1addc	0.019736223
112	0x3cb19daa	0.021681625
113	0xbca3df1c	-0.020003848
114	0x3d7cd8cd	0.061730195
115	0x3da687f1	0.081313975
116	0xbdf13e14	-0.117794186
117	0xbe50b0ee	-0.20379993
118	0x3e266333	0.16248779
119	0x3d94fbcb	0.07274588
120	0xbc854f0b	-0.016273042
121	0x3c7bd86c	0.015371423
122	0xbda60fc3	-0.08108475
123	0x3e7f2362	0.24915841
124	0xbcf0da91	-0.029401096
125	0xbeb31d5e	-0.34983343
126	0xbd715938	-0.058922976
127	0xbc97e6b1	-0.01854262
128	0x3d91617b	0.07098671
129	0xbde611a4	-0.112338334
130	0x3de11cc7	0.10991817
131	0x3dbca48e	0.09211074
132	0xbd90de88	-0.070736945
133	0x3dc8a183	0.09796431
134	0x3d8f3eb9	0.06994385
135	0xbe131209	-0.14362349
136	0x3d84ba66	0.06480865
137	0x3e013a17	0.12619816
138	0x3df2801b	0.118408404
139	0x3c89d614	0.016825713
140	0xbc4c839e	-0.012482552
141	0xbbc2663e	-0.0059325984
142	0xbd89686c	-0.0670937
143	0xbd0e7607	-0.03478053
144	0x3eff1954	0.4982401
145	0xbdec7068	-0.11544877
146	0xbde9e2ba	-0.11420198
147	0x3d4213b5	0.047382075
148	0x3dc8885c	0.097916335
149	0xbd02084d	-0.031746197
150	0xbe6a8738	-0.22903144
151	0x3dc0466e	0.093884334
152	0xbd0b160f	-0.033956584
153	0xbc69b4df	-0.014264314
154	0x3d68d8a2	0.056847222
155	0xbe043751	-0.12911727
156	0xbc3ac2c2	-0.011398973
157	0x3ba51564	0.0050379504
158	0x3eab579a	0.33465272
159	0xbd1d1ec0	-0.038359404
160	0xbc45de96	-0.012076994
161	0x3d0b404c	0.033996865
162	0xbc820e2b	-0.015875896
163	0xbdd981f5	-0.106204905
164	0xbceef264	-0.029168315
165	0x3d984348	0.07434708
166	0xbe94404d	-0.28955308
167	0xbe36bfd9	-0.17846622
168	0xbd816a59	-0.06319112
169	0xbc1cf612	-0.009580152
170	0x3dc4e554	0.09614053
171	0x3d346dbc	0.044049963
172	0xbbc62703	-0.006047131
173	0xbd963ce5	-0.073358335
174	0x3ccd5882	0.025066618
175	0xbc28d0a4	-0.01030365
176	0x3b9d144d	0.00479368
177	0xbb8c091b	-0.0042735464
178	0xbd5ffc76	-0.054684125
179	0x3c6c69f1	0.014429555
180	0xbd0e0cfa	-0.034680344
181	0xbe081e2b	-0.13292758
182	0x3e1a6f81	0.15081598
183	0xbcd8cdb1	-0.026465269
184	0xbdb67d32	-0.08910598
185	0xbca70830	-0.020389646
186	0x3d278502	0.04089833
187	0x3e98c27b	0.29835877
188	0x3d3779c0	0.044793844
189	0x3d336d98	0.04380569
190	0xbccb3532	-0.024805639
191	0xbcd84824	-0.026401587
192	0xbd89f3d6	-0.06735961
193	0xbd88e5f5	-0.06684486
194	0xbe0432a5	-0.12909944
195	0x3d3f14e6	0.04665079
196	0xbd850dc7	-0.064967684
197	0x3ddf1882	0.10893346
198	0x3cb41db6	0.021986824
199	0xbe0748cd	-0.13211365
200	0x3d2f3213	0.042772364
201	0xbd219051	-0.03944427
202	0x3dc91c20	0.098198175
203	0x3d2a74a4	0.041615143
204	0x3dc1029b	0.09424325
205	0xbd20b01b	-0.039230447
206	0xbd14068a	-0.03613905
207	0x3d321d1a	0.043484785
208	0x3eebf980	0.4608879
209	0xbe1e64ce	-0.15468141
210	0x3d9c4199	0.07629699
211	0x3df33753	0.11875787
212	0xbc95e840	-0.018299222
213	0xbc2e0ddf	-0.010623424
214	0xbea7670e	-0.32695812
215	0x3e3d7a60	0.18503714
216	0xbd5d9137	-0.054093566
217	0xbdbdb599	-0.09263153
218	0x3d535992	0.051599093
219	0xbd2324c9	-0.039830003
220	0xbc78f9e0	-0.015196294
221	0xbd1945a5	-0.037419934
222	0x3eb4f011	0.35339406
223	0xba8f801f	-0.0010948217
224	0x3c9fb540	0.019495606
225	0xbd047e3d	-0.032346953
226	0xbd909924	-0.07060459
227	0xbddfd0a3	-0.10928466
228	0xbdb35ef2	-0.08758344
229	0xbb95bc75	-0.004569585
230	0xbe7678f1	-0.24069573
231	0xbc2d8fdb	-0.01059338
232	0xbd7f9d65	-0.062405962
233	0x3d2aa8c9	0.041664872
234	0xbd0dd45f	-0.03462636
235	0xbd864bcf	-0.06557428
236	0xbd98c990	-0.0746032
237	0x3c4134fe	0.0117924195
238	0xbc4b2e6e	-0.012401206
239	0xbdc53fdb	-0.0963132
240	0x3d848d31	0.064722426
241	0x3dbef326	0.09323721
242	0x3db0daf0	0.08635509
243	0x3d5334fa	0.051564194
244	0xbd8accc7	-0.067773394
245	0x3b0deb71	0.0021655227
246	0x3e2cd900	0.16879654
247	0xbcc47e21	-0.023985924
248	0x3d9a575c	0.07536194
249	0xbd8190d3	-0.06326451
250	0xbcbd9e64	-0.023146816
251	0x3e5ff896	0.21872172
252	0x3ca2cd40	0.019873261
253	0xbe98aade	-0.2981786
254	0xbdc54e48	-0.096340716
255	0xbb9395ec	-0.004503956

model.4.bias f4 [30]
0	0x3eb3e2a4	0.3513385
1	0x3e96c1ce	0.29444736
2	0x3e9fca7f	0.3120918
3	0x3e95dc30	0.29269552
4	0x3e91e32b	0.28493628
5	0x3e96fd20	0.29489994
6	0x3e926e86	0.28599948
7	0x3e9330eb	0.2874826
8	0x3e9bd2da	0.30434304
9	0x3e9d28e9	0.30695274
10	0x3e9e2076	0.3088414
11	0x3ea370e1	0.31922057
12	0x3ea3c960	0.31989574
13	0x3ea5527d	0.32289496
14	0x3ea97d27	0.33103296
15	0x3ea99675	0.33122602
16	0x3ea6b9e0	0.32563686
17	0x3ea9d191	0.331677
18	0x3ea8f8b0	0.33002234
19	0x3eab5515	0.3346335
20	0x3eab6437	0.33474895
21	0x3eac613f	0.33667943
22	0x3eac8356	0.3369395
23	0x3eac1e7d	0.3361701
24	0x3eae9187	0.34095404
25	0x3ead11ea	0.3380273
26	0x3eae37be	0.34026903
27	0x3eaefae0	0.34175777
28	0x3eaed6a9	0.34148148
29	0x3eb0c24f	0.34523246
