back_end/model2_classifier.pt (torch, 28600 bytes, 7 tensors)

model.0.weight f4 [64, 48]
00000000: afbd c9ba f57b 5abd 44d7 d9bd f45d 19be
00000010: faac 21be ee6a 44be 1bcd 073d 3476 0ebc
00000020: 4ed1 82bc 7c48 5cbe 1c90 3abe 5e31 62be
00000030: a03b 65be 567d d1bd c740 6e3c 488d 29bd
00000040: 7800 b9b9 9393 b2bd c4da 29be c40a 12be
00000050: 73b4 1cbd 2f79 15bd 55bc dc3d 78af b63d
00000060: 6ca5 b93d 737d b4bd 6d20 3dbe b988 0fbe
00000070: f133 bfbd e90d 82bd 35ae 183c dd00 983d
00000080: 7019 1fbe 1bc0 dfbd e7eb 07bd 44ba 0cbe
00000090: a641 503e 8ed1 073e 5785 ed3d 19b9 863e
000000a0: 229a 973a fd17 013c b220 243e e4eb 653c
000000b0: 1ee4 49bc ecd2 1c3e 5683 0abd e47a e2bd
000000c0: 15ae 0b3e 40b5 923c 65e2 f0bb 7246 59be
000000d0: 993c 4e3d c776 b2bd f3b5 10bd eee0 e9bd
000000e0: 4403 763c 3826 383e 6601 973d 1acb ccbc
000000f0: eaef 02be 950d 32bc cdf1 15be ea5e 923c
00000100: ad2f 77be 636c 86bd 84e9 6dbd 57dc 3dbc
00000110: a2ed 5d3d 5d73 a53d 2ac8 133d cde9 183e
00000120: cddb 803e 61fd 593e e860 b33c 0961 a33d
00000130: 0818 b23c 7000 3b3d b847 b33c 5800 d03c
00000140: f30c 2fbe fa51 b5bd 3db9 d0bd f0ed fa3d
00000150: 9124 793d 2571 bd3d 2ab6 acbc 205d 5c3d
00000160: a551 88bd 89a0 cf3d 4dd8 2fbb ead5 d9bd
00000170: 718e 1dbd 3060 5c3d cfff 373e f1fd 5f3d
00000180: b26d 48be 22be 7f3d c0cd 723d 3b8c 9c3c
00000190: bacc b7bd 9b03 3dbd 2a65 963d c34b adbd
000001a0: 5856 2b3e 1a80 053d 6c40 533d 98c3 0bbe
000001b0: 62d5 2bbd 2c82 e03d 5b61 263d 58d8 2d3e
000001c0: 0874 c23c 79eb 2cbd 354c 84bc db4b 1dbd
000001d0: fbd2 df3d a846 b93d 26a4 00bd 4c8f d93d
000001e0: dc5f dd3d 7b87 24be ca21 71be 2c43 1fbe
000001f0: 6b50 793d 4d39 db3d 009b 8e3d f75f f4bc
00000200: 1ec5 13bd be6f 423d c056 b73d 74d3 483b
00000210: e9e4 b7bd 5c07 5abe 30bc 0d3e a0be 463e
00000220: 4fd6 67bc 40ff 273e 2a06 b9bc fcaf 283d
00000230: c333 cabd fe20 b23d e036 a33c e770 72bd
00000240: 6b02 f9bd 5115 02bd 3854 debb 0721 e6bd
00000250: 54df bfbb 2ccb 223e 0fe4 e33d 8828 063e
00000260: 299e 903d 4a96 4b3d 0a76 633e 8b0d d0bd
00000270: a087 c23c 34b3 0f3d 243a 723e fd94 43bd
00000280: 1323 883d 913c 16be 5c1c 5abd a447 f43c
00000290: 0990 46be a032 e1bd edb8 373c 798d 95bc
000002a0: a51e 043e 6c87 ef3b 4c82 413d 1613 e83c
000002b0: 2904 a6bd fe79 cebd 1db5 e73d 0841 9fbd
000002c0: 2b8c c53c 1b83 b73d 2edd 51bd 79c4 333d
000002d0: 4b08 273d a402 8b3d 1d3e 813d c70f a1bd
000002e0: 0004 ef3d c099 2cbd 598b 86bd ad57 0a3d
000002f0: c867 24be 5fce 153c 6dbe 25bd df0a 2abe
00000300: 56da 9fbe 5f5b 6f3c 79cc 143d 5099 f2bd
00000310: 9a1e 78bd fd2d 26bd 1a7e 1f3e b656 5abd
00000320: 8939 073e 3df4 093e 740f ed3c 7dd9 17bd
00000330: eb9c f83c 14ef 063d 3f28 c03d fc91 8c3d
00000340: 28cd cfbd c91f 59bd b58a c1bd da5f 3bbe
00000350: c63c 28be b169 6bbd 999e f2bd 5186 32be
00000360: 5245 f3bc 159e a53d 6a75 1abd 2777 95bd
00000370: 36c6 033e c019 0c3d 12ba 47bd f7bc 093d
00000380: e6bc f1bb 6778 c8bc 0f7e 643c fab5 76bd
00000390: 5c7b 7cbe 87aa 2bbe f4b3 06be 0952 38be
000003a0: 0cb1 1fbe 39ca a4bd 048c 3dbe 5cbe 523d
000003b0: 4046 6bbe 92d4 7bbd f80c c1bc ae2b 223e
000003c0: 8fe5 1ebe 74ed 503d 3506 773d 41d2 ca3d
000003d0: 4d11 b13d 38e7 75bd 086b abbd 0879 1cbd
000003e0: 69b5 3b3e 1a55 ef3d e803 6c3d 2f7f 5a3c
000003f0: f76e 2bbe 0890 14be b422 073e 6d54 463d
-0.0015391613 -0.05334087 -0.10636762 -0.14977247 -0.15788642 -0.19181415 0.03315459 -0.008695174
-0.015968945 -0.21512026 -0.18219036 -0.22089145 -0.22386026 -0.10228984 0.014541811 -0.041394502
-0.000352863 -0.08719554 -0.16587359 -0.1426192 -0.038258027 -0.036492523 0.10778109 0.08920187
0.09064755 -0.0881299 -0.184694 -0.14017 -0.09336079 -0.063503094 0.009318878 0.0742204
-0.15537047 -0.10925313 -0.03318396 -0.1374293 0.20337543 0.13263533 0.11597698 0.26313093
0.0011566321 0.007879254 0.16028097 0.0140332915 -0.012322454 0.15314835 -0.033816658 -0.11058596
0.13640626 0.017908692 -0.007351207 -0.21218279 0.05035076 -0.08714061 -0.03532977 -0.11419855
0.015015427 0.1798333 0.073733136 -0.02499919 -0.12786832 -0.010867496 -0.14643021 0.017867524
-0.2413928 -0.06563642 -0.058084026 -0.011588178 0.054181702 0.080786444 0.036079563 0.14932938
0.25167695 0.21288063 0.021896794 0.07977492 0.021739975 0.045654714 0.021884784 0.025390789
-0.17094783 -0.088535264 -0.101915814 0.12252414 0.060825888 0.09250096 -0.021082956 0.05379975
-0.066561975 0.101380415 -0.0026831806 -0.10636504 -0.03846592 0.05380267 0.17968677 0.054685537
-0.19573095 0.062437184 0.05927825 0.019109836 -0.08974595 -0.046146017 0.07343514 -0.08461716
0.16732156 0.03259287 0.05157511 -0.13648832 -0.041951545 0.10962328 0.04062019 0.1697706
0.023736969 -0.04221675 -0.01614962 -0.03840242 0.10928913 0.0904668 -0.031406544 0.10623035
0.10809299 -0.16067307 -0.23548046 -0.15552968 0.06086771 0.10704289 0.06963158 -0.029830916
-0.036076657 0.047469847 0.08952093 0.0030643614 -0.08979208 -0.2129187 0.13841319 0.19408655
-0.014150216 0.16405964 -0.022585947 0.041183457 -0.09873154 0.08697699 0.019923627 -0.059189703
-0.12158664 -0.03175861 -0.006784942 -0.11236768 -0.00585548 0.15897816 0.11127483 0.13101399
0.07061417 0.049703874 0.22212997 -0.10158833 0.023746312 0.03508301 0.23654991 -0.04774951
0.06647315 -0.14671542 -0.0532497 0.029819317 -0.19390883 -0.10995984 0.011213523 -0.018255936
0.12902315 0.0073098447 0.0472434 0.028329413 -0.08106262 -0.10081862 0.113138415 -0.077760756
0.024114689 0.08960553 -0.051236324 0.043888543 0.040779393 0.06787613 0.06310675 -0.078643374
0.11670685 -0.042138815 -0.06569547 0.03377502 -0.16055214 0.009143441 -0.040464807 -0.1660571
-0.31221265 0.014609187 0.036327813 -0.11845648 -0.06057606 -0.0405712 0.15575448 -0.05330535
0.13205542 0.13472076 0.028938033 -0.037072647 0.030348262 0.032942846 0.09382676 0.06863782
-0.10146552 -0.05300883 -0.094502844 -0.18298283 -0.16429433 -0.057473842 -0.11846656 -0.1743405
-0.02969614 0.080867924 -0.03770963 -0.07298117 0.1286858 0.034204245 -0.048761435 0.033627477
-0.007377255 -0.024471475 0.01394607 -0.06023214 -0.24656433 -0.1676427 -0.13154584 -0.18000044
-0.15594882 -0.080463834 -0.18510443 0.051451072 -0.22976017 -0.06148202 -0.023565754 0.15836975
-0.15517257 0.051007703 0.060308654 0.09903384 0.08645878 -0.06003496 -0.08370024 -0.038201362
0.18330921 0.11686154 0.057620913 0.013335987 -0.16741548 -0.14508069 0.13196832 0.04842036

model.0.bias f4 [64]
00000000: 4b85 073e b1d9 8abd ac23 21bc d44d af3e
00000010: d5e4 853d 857a b2bc 58a3 a43e 08c7 72bd
00000020: 70c0 033e 6cfe bebb e529 f0bd afa6 9fbd
00000030: 3997 92bd a8fc e1b9 305b d2bc f503 72be
00000040: 856d 20bd 3a5e 333c f386 b1bc 7978 de3c
00000050: 4919 87bd 9c54 aa3c 4ef3 47bd 0dd9 473d
00000060: 1de9 28bb b70f 7ebe af7b e8bd 4c06 af3b
00000070: 13ac 183e 3e3a 96bc 7c1a a5bd 6ee7 9abd
00000080: 0bc7 49bc 2629 2b3e 378d 703d 0126 84bb
00000090: 91cf 31bb da3a c0bd 4376 2abc 7651 6bbe
000000a0: 5e65 1abe 6148 82bb 5af1 2fbd 8957 7bbd
000000b0: e6fc 4ebe 9a76 cdbc bb1c 9fbc 4e78 e2bd
000000c0: 93e5 d6bd 156a 8dbc a524 6cbd 9cea 6abd
000000d0: bdf6 c73c b950 dcbd 7bc4 9ebd f3d3 83bd
000000e0: eba1 cfbd 9461 a43d 21fb 95bc a50b 10bc
000000f0: 0b77 1fbd c9f0 22be dd23 483d 96fe 7cbd
0.13234441 -0.067798026 -0.009835165 0.34239066 0.06537787 -0.021786937 0.3215587 -0.059271842
0.12866378 -0.0058286693 -0.11726741 -0.07795464 -0.0715775 -0.00043103588 -0.025678247 -0.23634322
-0.039166946 0.010947758 -0.021670794 0.027157055 -0.0659662 0.020792298 -0.048816018 0.04879098
-0.0025773712 -0.24810682 -0.11351716 0.005341327 0.14909391 -0.018338319 -0.08061692 -0.07563673
-0.012315522 0.16714916 0.058728423 -0.0040328507 -0.0027131776 -0.09386225 -0.010404172 -0.22980294
-0.15077731 -0.0039759134 -0.04295478 -0.061362777 -0.2021366 -0.025080968 -0.01942288 -0.110581025
-0.104930066 -0.017262498 -0.057652134 -0.057352647 0.024409646 -0.10757584 -0.077523194 -0.064369105
-0.10138305 0.08026424 -0.018308224 -0.008791839 -0.038931888 -0.15912165 0.048862327 -0.06176623

model.2.weight f4 [32, 64]
00000000: 95e8 373e 0e1b 2c3e 9c66 603d 10d2 d13c
00000010: b77a bb3d 3604 873d c3e8 dc3d 3d62 60be
00000020: 7f4e 053d 0f8d 083d 7d24 82bd 07df 7e3d
00000030: 7fc3 53bf b752 ebbd 3c4a ae3c 543c 79bd
00000040: 951f b9be b3b1 c2bd 7db8 05bd 3883 273c
00000050: ffa0 91bd 9b21 e33d e9bd afbe 421e 083d
00000060: 4a09 abbc 9fc5 93bd cb57 96bd 9e6f 79bd
00000070: ec6a 4cbe fc86 273d 77d7 193d fb01 8f3d
00000080: b521 843d a409 5c3d 5a60 30be 0e78 42bd
00000090: b127 53bb 3ef0 c23c dc53 8dbf 180e 0abe
000000a0: 4cde 79be 0ccf aa3d 6809 3b3c 5d32 da3c
000000b0: d297 f83d a6b6 e63c ce0a 7dbe 0dbd 88bd
000000c0: 8bb0 f33d b731 a03a 22dc e6bc 1f76 3b3c
000000d0: aa15 44bc b5ab 6ebc 8bc3 413e 4a17 e2bb
000000e0: 26d7 f73c 9733 7ebd fc9f 6cbd 4315 783d
000000f0: 3845 1e3d 603f 21be 69bc 66be b8fe a43d
00000100: fc08 cc3b f2bb f1bc 456a 893d f772 5c3d
00000110: 5ba5 9ebd 3584 433d cb60 a63a 8151 77be
00000120: dbf6 8c3c 4688 4b3d 717a 27be 3f63 363b
00000130: 0a20 00bf 0d85 c7bd 2268 0abc 044d a5be
00000140: 258e d2be 16f3 8bbc e269 cd3d 4831 8ebd
00000150: 2971 7ebd 0186 8a3b 1a82 4cbe 41f8 cf3d
00000160: 59d1 34bd 10c5 e63d 56e3 98bb c5b2 203e
00000170: 9929 80be 476e 843d 533b 6e3d 8e49 3bbd
00000180: 21e3 e83d e709 f33d c732 34bd 7ab5 8f3b
00000190: efb2 ce3a d443 d73d 3795 a3bf 37db 0b3e
000001a0: d52c 153e e68c 5d3d f6b1 8c3d f201 a0be
000001b0: 2590 acbd b975 6b3d b1e2 00be 92d5 42be
000001c0: ea49 c6bb 3e26 b93d cf58 a23d e76c d23c
000001d0: 25ea 22bd 4925 563d 93e5 cb3c f974 2e3e
000001e0: dcb2 5938 cdff e2bd 08ce 16be 8bde 34bd
000001f0: e461 a13d 1b13 a6bd db43 09be e83e 91bd
00000200: 381b 67bd 16eb f7bd c3ca 31be af1c 003e
00000210: 0140 ef3d 0262 8abe 28d4 df3d 64f8 c33c
00000220: c63f ce3c 5ffc cdbe 8140 69be f8ba d83d
00000230: eb72 b43e 34d4 933a 4c67 80be 5a79 1cbe
00000240: 8b81 463d 48c7 35bd bff3 9cbe 44a1 eb3d
00000250: e9cc 3fbe 8862 36bc 005f 6d3e 91d9 183e
00000260: ebd9 0dbd af6d 80bd b292 103e b774 8e3c
00000270: 5ff2 f2bc c0fd 133e b659 9ebe 9817 cb3d
00000280: 1d30 30be 971a b13d a209 ecbd 1148 3c3d
00000290: 3445 8bbc bd96 bdbc ba96 0f3f 60a3 2c3d
000002a0: 2705 a4b9 9504 5bbe b7bc 953d 094e acbe
000002b0: 00cb b53d fb5d cf3d 4810 d5bb feab 543d
000002c0: b613 97bc ffe5 ac3d 8c01 9dbc f946 4b3a
000002d0: 24f6 1a3e ec51 0ebe 3d3d c83d a3e3 723d
000002e0: 5bfb 4abe 3eb6 42bd 27d9 fc3d 839d 803c
000002f0: 6efe 36bd 76b9 223e b542 ec3d f3ad 40be
00000300: 6a89 c13d cff1 9a3d 9e42 b2bd 9331 2bbd
00000310: d432 383e dca2 20bd 76dc d03d 1b42 3abe
00000320: 6e4a 013e 62f0 b6bd 1a31 4bba 23ec a4bc
00000330: f3bb 30bf de35 69be 3997 c13d cff3 b4bd
00000340: 86a1 aabe c76a bcbd 7a72 963d 6e3c 183e
00000350: ee3b 9c3d 4293 84bd 0e92 8bbe 7a39 0d3b
00000360: 2e6d b43c a2bc 87bd cfae 8dbe f247 f13d
00000370: f45b 8bbe 8692 083e 502d d83d 298f fe3d
00000380: ec41 aeba dc42 e0bd 65bf 73bc 8cad 453d
00000390: 951f 993a 2f86 bfbd 269d 8fbf c8a4 c1bd
000003a0: 50bd 5ebe 751c d13d 4632 9dbb a640 8abd
000003b0: 2d23 e2bb ea3d ff3d 1f8d 90be 028b 7cbd
000003c0: ef4b 423e ad0e 8abc 9ea2 9f3d 2acd f8bc
000003d0: a242 6d3d 9174 54bd 1dd0 e63d f64b 3e3d
000003e0: d177 5b3b f9df 94bc d416 1dbd ca26 fa3d
000003f0: 0ea9 223d 3d97 03be 4a27 89be 9085 48bd
0.17959817 0.16807196 0.054785356 0.02561286 0.091542654 0.065926 0.10786583 -0.21912475
0.032545563 0.03333765 -0.06354616 0.062224414 -0.8272018 -0.11490386 0.021275632 -0.06084855
-0.36156908 -0.0950655 -0.032646645 0.010224156 -0.07110786 0.11090394 -0.34324577 0.03323198
-0.020878453 -0.072154276 -0.07340964 -0.060897462 -0.19962662 0.040900216 0.037559 0.069827996
0.064517416 0.05372013 -0.17224255 -0.047477774 -0.0032219703 0.023796197 -1.1041217 -0.13481939
-0.24401206 0.08340272 0.011415817 0.026635343 0.121383324 0.028163265 -0.24711153 -0.066766836
0.11898907 0.0012221847 -0.02818114 0.0114417365 -0.011968056 -0.014567305 0.1892225 -0.006899749
0.030253958 -0.06206092 -0.05776976 0.06056715 0.03864023 -0.15746832 -0.2253281 0.08056396
0.006226657 -0.029508565 0.067097224 0.053820577 -0.07746383 0.047733504 0.0012693641 -0.24152185
0.017207554 0.049690507 -0.16355301 0.0027830151 -0.5004889 -0.09742174 -0.008447679 -0.3228532
-0.41124073 -0.017083686 0.10029961 -0.069429934 -0.062119637 0.0042274003 -0.19971505 0.101547725
-0.044144962 0.112680554 -0.0046657724 0.15693195 -0.25031736 0.06466346 0.058162045 -0.045724444
0.113714464 0.11867123 -0.043993738 0.0043856474 0.0015769879 0.10510984 -1.2779912 0.13657843
0.14567883 0.05408945 0.06869881 -0.31251484 -0.08425931 0.057485316 -0.12586476 -0.19026783
-0.0060512917 0.09040497 0.07927095 0.025686694 -0.03977408 0.05228165 0.024889743 0.17036809
5.1903407e-05 -0.110839464 -0.14727032 -0.044157546 0.07879999 -0.08109113 -0.13404791 -0.070920765
-0.056422442 -0.12105386 -0.17362504 0.12510942 0.1168213 -0.270279 0.109291375 0.023922153
0.025176894 -0.40231606 -0.22778513 0.105825365 0.35243925 0.0011278451 -0.2507881 -0.15280667
0.048463386 -0.044379503 -0.30654714 0.11505368 -0.18730511 -0.01113189 0.23180771 0.14926745
-0.03463165 -0.062709205 0.1411846 0.017389638 -0.029656587 0.14452267 -0.3092782 0.099166095
-0.17205854 0.0864765 -0.11525275 0.045967165 -0.017000772 -0.023143167 0.56089365 0.042147994
-0.00031284356 -0.21388467 0.07311385 -0.33653286 0.0887661 0.10125347 -0.006502185 0.051921837
-0.018442016 0.08442306 -0.019165777 0.0007754411 0.15132958 -0.13898438 0.09777305 0.059299123
-0.19822447 -0.04753708 0.12346106 0.015700107 -0.044676237 0.1589106 0.11536161 -0.18816356
0.09450038 0.075656526 -0.087041125 -0.041795325 0.1798814 -0.039217815 0.101982996 -0.1818928
0.12626049 -0.08932568 -0.0007751152 -0.02013213 -0.6903679 -0.22774455 0.094526716 -0.08835565
-0.33326358 -0.09200054 0.073460534 0.14866802 0.07628618 -0.064734 -0.27259868 0.0021549151
0.022024717 -0.06627776 -0.2767243 0.117813006 -0.27218592 0.13337144 0.10555518 0.124296494
-0.0013294793 -0.109502524 -0.014877175 0.04826121 0.0011682386 -0.09351765 -1.1219833 -0.09455258
-0.21751904 0.10210506 -0.004797253 -0.06750612 -0.006901166 0.12462981 -0.28232667 -0.061656006
0.18974279 -0.016852701 0.07794689 -0.030371267 0.057924874 -0.05186898 0.11270163 0.04645916
0.0033488164 -0.018173205 -0.03835185 0.1221443 0.039712004 -0.12850662 -0.26787788 -0.0489555

model.2.bias f4 [32]
00000000: f2fd 183d 98e8 613e 712a 433e 7f38 c13d
00000010: 9c4f a93d 33d9 aa3d 4e3e 2d3d c08f 9f3d
00000020: ef8b 943d c7be 393e 285d 613d 15a4 973d
00000030: 02d2 92be 2c70 993e 1805 133f e0f6 493d
00000040: ef7e 0a3d 2f63 233e c72b 013e b842 d8bd
00000050: ba53 ec3d f7c1 433e fb08 84bc 3287 6b3d
00000060: 1164 b2bc 48c3 cebe 239a 423d 78f5 a33d
00000070: 8fb1 10bc 9909 5d3d 305e 253f f7fc 143f
0.037351556 0.22061384 0.19059159 0.09434604 0.082671374 0.08342209 0.042295747 0.0779109
0.07253253 0.18139182 0.05502048 0.07404343 -0.28675848 0.29968393 0.5742965 0.049307704
0.03381246 0.15955804 0.12614356 -0.105596006 0.11539407 0.1911696 -0.016117563 0.05750198
-0.021776231 -0.40383363 0.047510277 0.08005804 -0.008831396 0.05396423 0.64596844 0.58198494

model.4.weight f4 [32, 32]
00000000: 4753 543e 8c99 053f 831c dbbe caa7 9d3e
00000010: 247f 9f3d a494 273e f3c6 6c3d c502 953e
00000020: 20b8 c23d 1cbb bb3d 3eff 5f3d d163 973e
00000030: 5f21 f0be 330a babd 5e53 503d 7a53 dcbd
00000040: 86ec 893e 83ea b1be 5ca6 9d3e e946 86be
00000050: 0ae4 30bf 653e 883d 8876 393e ec37 503e
00000060: fd67 a13e c5e7 f1be 3b10 3d3e c4fe 5fbd
00000070: fa15 b9bd c210 1e3e c185 993e 697b 493e
00000080: 405a 15be d1ee d2bd 0817 453e b27e f6bd
00000090: c7b2 5ebc 0abb 46ba 193a f7bd aa42 1e3e
000000a0: 5cac 70bc 5c90 af3e 678e 08be f9d9 19be
000000b0: c972 e2bc be12 1d3d 513d 2d3e a710 dabd
000000c0: 3b5a a1be 15e1 96bb 3707 a6be 37d0 393e
000000d0: 5c77 733e f4aa eb3d 7ac1 4cbd 2e22 d5bd
000000e0: 5b9e 6bbe fab5 40bc a718 2cbd 98db 663e
000000f0: 9e57 7d3d b883 bebc 7dc1 7f3d d4ff 743e
00000100: 1f8a 433e 1a68 4e3e aff4 8abe 4860 c53e
00000110: 2ba6 203e 4628 983d 3dee 2c3e 7f3e 783e
00000120: a806 e33d 1cf7 83bb f874 b83e 2e89 873e
00000130: 92cd 96be ce2c b0ba 530c 893e 13a7 44be
00000140: 8e38 a43d 31e1 96be ef9a 583e 01d8 84be
00000150: 21db 10bf 1c77 1c3d c6b9 3b3e 4db6 ee3d
00000160: 952b 0a3e 3b21 a1be dfbf 963e 497b 53be
00000170: eca0 c9be 392a 8a3e fbc5 053e bbe8 4f3e
00000180: 90db 923d 147f 803e 9741 4bbe 8f67 49be
00000190: 911e 433e efbd c9be fd31 c0bd 211e 09be
000001a0: 924d e1bb 2185 f2bd 5f00 99bd 82f2 a33d
000001b0: 6a66 c63d 7872 6dbe ecea 503d 1f19 7b3e
000001c0: 8786 03be fae9 0ebe 5dce 253d 9387 e23d
000001d0: df02 7f3d db15 9abd 0e3a 5f3e 82ac 2cbe
000001e0: d3bf b3bd 613e 8abc 9f1b 04be fa85 9b3d
000001f0: 2fa4 9fbd 198e 2b3d 65a1 9c3d ba44 eabd
00000200: 0e9a ef3e 5a63 023f 4453 0bbf 04e8 bf3e
00000210: 09b9 11bd 5101 573e d4fe b63e 2f56 303d
00000220: 24a8 8d3d 9ab7 1fbe 2b96 8a3e 5f8e 713e
00000230: b617 9fbe 4d15 893c 0d59 6e3e 2f3a 823e
00000240: cc31 fc3e 19bb b2be e1b8 933d c038 8cbe
00000250: bbf2 39bf fd45 ed3d 3d26 893d 7163 373e
00000260: 2264 eb3d f794 04bf 87f5 a83d 15cf a1bd
00000270: f1b2 cebd 7eb9 a93e 770a 8c3e c577 893e
00000280: fc04 a9be 59c7 cebe a039 023d 7a4f e0bc
00000290: 3aa3 e33c 18e9 bdbe 2885 5dbe c842 89be
000002a0: 3c79 15be 2f5f 5e3d 8c69 00be 47ce a4be
000002b0: 4ee6 f63d b64f 6a3e dfee 343e 24bf 20be
000002c0: 3066 68be 1355 873e 11b4 c0bd b383 1abd
000002d0: 4522 813e ecc3 533e 0434 93be 15f1 893d
000002e0: cf32 92be e4a3 27be 511f 3fbe d477 073e
000002f0: e666 d33d 76d2 bfbe c4bb 9a3e ae50 ab3e
00000300: 3fe7 ce3d f7b6 da3d c746 f9be c5a5 513e
00000310: e4b4 803b 31cb 323e e459 9d3e 54ed 763e
00000320: 0269 993e 9ff0 5bbe 7f9b c93d d279 dd3e
00000330: 80db 89be 6745 8c3d fe7e f53d c604 af3d
00000340: 340b 393e aa38 bdbe 4a6b 733e d782 a3bc
00000350: 4f29 bfbe 8bf6 223e 1e83 acbd ef54 d23d
00000360: 3108 9a3e cf79 9cbe d73a 443e e505 a9be
00000370: 0807 48be 184a 8b3e 5add 843e f4f0 d1bc
00000380: ac79 28be 9a19 c43d e329 4dbe 91d3 e5bd
00000390: 31ea f43d e511 4abe e8a6 85bd 0e2d 3dbe
000003a0: b2b5 1a3e eb2a 28be a6b7 873e c738 963a
000003b0: 848e 653c 595c a4be 6c8d 9bbc 3ff5 be3c
000003c0: 579b 6fbd 0748 0f3d b997 42be d893 a33d
000003d0: bb2a 8b3b 4dda 673d 95d6 033e 1955 48be
000003e0: ab41 94be 9404 e93d 5dc1 44be 63f8 c43d
000003f0: 99d4 e2bd aa98 f33c 225b f3bd dd9e 8a3d
0.20734893 0.5218742 -0.4279519 0.30792075 0.07787922 0.16365296 0.05780692 0.29103675
0.09507775 0.09166548 0.054686777 0.2956834 -0.4690046 -0.090839766 0.050860755 -0.107581094
0.26938266 -0.3474923 0.30790985 -0.26225975 -0.6909796 0.06652526 0.18111622 0.20333833
0.3152465 -0.4724714 0.18463223 -0.054686323 -0.09037395 0.1543608 0.2998486 0.19675983
-0.14585209 -0.10299457 0.19247067 -0.12035884 -0.0135924285 -0.00075809716 -0.12071628 0.15455118
-0.014689531 0.34289825 -0.13335572 -0.15024556 -0.027642624 0.038347952 0.16917922 -0.106477074
-0.31514153 -0.0046044686 -0.3242738 0.18145834 0.23776 0.11507216 -0.0499892 -0.1040691
-0.23009627 -0.011762137 -0.042015698 0.22544706 0.061851136 -0.023256168 0.062440384 0.23925716
0.19095658 0.20156899 -0.27139804 0.3855002 0.15688388 0.074295565 0.16887756 0.2424259
0.11085254 -0.0040272605 0.3602674 0.26471847 -0.29453713 -0.0013441087 0.26767215 -0.19204359
0.080185995 -0.29468682 0.21152852 -0.25946048 -0.56584364 0.03819953 0.18332586 0.11655865
0.13493188 -0.31470665 0.2944326 -0.20652498 -0.39380586 0.26985338 0.13063805 0.20303623
0.071707845 0.25096953 -0.1984924 -0.1966841 0.19054629 -0.3940272 -0.093845345 -0.133904
-0.006875702 -0.118417986 -0.07470774 0.08005239 0.09687503 -0.23188198 0.05100529 0.24521302
-0.12844287 -0.13956442 0.040480006 0.11061015 0.062258597 -0.075237 0.2179949 -0.16862682
-0.08776822 -0.016875448 -0.12901162 0.075939134 -0.077949874 0.04188356 0.07647971 -0.1143889
0.46797222 0.5093285 -0.5442393 0.374817 -0.035576854 0.20996596 0.35741293 0.04305094
0.06916836 -0.15597382 0.27067694 0.23589467 -0.31072778 0.01673379 0.23276158 0.25435016
0.49256742 -0.3490837 0.07212997 -0.27387047 -0.72636 0.11585615 0.066967465 0.17909028
0.11493708 -0.517898 0.082499556 -0.07900826 -0.10092724 0.33149332 0.27351734 0.2684919
-0.33011615 -0.40386465 0.031793237 -0.027381647 0.027787793 -0.370919 -0.21632826 -0.26808763
-0.14597028 0.054289993 -0.12540263 -0.32188627 0.12055646 0.2288197 0.17669247 -0.15697914
-0.22695231 0.26432094 -0.09409345 -0.037723254 0.25221458 0.20680207 -0.28750622 0.06735436
-0.2855439 -0.16371113 -0.1866429 0.13229305 0.10322361 -0.37465256 0.3022138 0.3345999
0.101027004 0.10679429 -0.4868681 0.20473392 0.003927814 0.17460324 0.30732644 0.24113971
0.29962927 -0.21478508 0.09844112 0.43257004 -0.26925278 0.06849175 0.119871125 0.08545832
0.1807068 -0.36957294 0.23771396 -0.01995985 -0.37336203 0.15914361 -0.08423446 0.10270106
0.30084375 -0.30561683 0.1916307 -0.3301231 -0.19533932 0.27204967 0.25950128 -0.02562759
-0.16452664 0.095751956 -0.2003551 -0.11221994 0.11958731 -0.19733389 -0.065259755 -0.18474218
0.15108374 -0.16422622 0.265073 0.0011461013 0.014011029 -0.32101706 -0.018988334 0.023310302
-0.058497753 0.0349808 -0.1900319 0.07987183 0.004247037 0.056604672 0.12874825 -0.19563712
-0.2895635 0.11377826 -0.19214387 0.096176885 -0.11075706 0.029735882 -0.118826166 0.06768582

model.4.bias f4 [32]
00000000: 1861 993d a477 c83d 7048 b33c f5f8 27be
00000010: 664a a13d 50ee a93e a44a 3d3e 41ae 2ebe
00000020: 6bf6 013e 3a8c 833e 1f92 2dbc db33 af3d
00000030: caf9 183e 895c 0d3f 2b00 943e 4c73 843e
00000040: fe54 2dbd 6676 9b3e b44f 5b3e b855 db3e
00000050: c5d9 283e 034c 963e 5956 373e b386 a73e
00000060: dc04 d53e 08c5 143f dfe8 003e c470 643e
00000070: ceba acbc 3c02 363e 9906 b43e 9e7a 383e
0.07489222 0.09788445 0.021885127 -0.16403563 0.078755185 0.3318963 0.18485504 -0.1705866
0.12691657 0.25692922 -0.01059392 0.085548125 0.14939037 0.5521932 0.28906378 0.25869215
-0.042317383 0.30363768 0.21417123 0.42838836 0.16489322 0.29354867 0.17904033 0.32719955
0.4160527 0.58113146 0.12588833 0.22308642 -0.02108517 0.1777429 0.35161284 0.18015525

model.6.weight f4 [1, 32]
00000000: 8980 543f f483 97be d45f 0b3f c511 d5be
00000010: 9051 503f e33f efbe 072c 133f 8098 01be
00000020: b8b2 043f 5104 01bf 479c 93be 14b2 ea3e
00000030: dcde 053f 7693 31bf db82 a2be 697f 93be
00000040: dd84 033f 61e5 f93e 492c 4e3f 0907 6abf
00000050: 038e 173f 86cb f93e f0f4 e03e eb3a 173f
00000060: 3d42 fdbe b7e4 4ebf a247 563f 3d65 453f
00000070: d901 c9be 3e3d e8be 26e7 9bbe a59c 053f
0.8300863 -0.2959286 0.544431 -0.4161512 0.81374454 -0.4672843 0.57489055 -0.1265583
0.51835203 -0.5039721 -0.28830168 0.45838988 0.5229318 -0.6936563 -0.3174046 -0.28808144
0.5137461 0.48807815 0.80536324 -0.91416985 0.5920107 0.4878809 0.43936872 0.59074277
-0.49464598 -0.8081774 0.83703053 0.771076 -0.39259222 -0.45359224 -0.3044979 0.52192146
